google-chrome/optimization_guide_model_store/20/E6DC4029A1E4B4C1/F4E0929A56532773/model.tflite (tflite, 64852 bytes, 5 tensors)

arith.constant f4 [1, 64]
00000000: 6e90 373e bb10 28be cf32 893d e8e2 5cbe
00000010: 7886 1dbe ba28 7f3d fa01 cbbe 64e1 153d
00000020: 7616 aebd ac9d 073f febc 863e 11aa 65be
00000030: 45bb 82be 4024 e0bd b636 3abe 9902 8b3e
00000040: 22e1 51be 3f18 993e af21 423e a933 63be
00000050: acef fa3d 23f2 993c 5676 a73e 1686 903d
00000060: 01bf 91be c6ab 8cbe 8b26 a9be 053d 20be
00000070: 7934 fa3d a779 663e 8076 88be 4eff 5dbe
00000080: 8446 92be 975f c33e 3527 1abe 34c2 ae3e
00000090: 8700 a4be a4b9 593d bd96 003e ec0f c0bd
000000a0: a336 8ebd 7555 38be 31bc 853e 6f06 84bc
000000b0: 7c00 823e cba7 a13e 3e42 5b3e 4668 eabe
000000c0: 148d ce3e 6a88 0fbd c6d5 30be 49b7 883d
000000d0: 696a 973e 0bcc 963e 7603 0b3e cb84 dfbd
000000e0: 3c1a 41be 34f9 fa3d 95b8 853e c32c ac3d
000000f0: 47f9 76be 89dc 2d3e 1af9 563e 977a 8ebe
0.1792619 -0.16412632 0.06699144 -0.21570933 -0.15383327 0.0622947 -0.39649945 0.036591902
-0.08500378 0.52974963 0.26316065 -0.22428156 -0.255335 -0.10944414 -0.18184933 0.2715042
-0.20496038 0.2990131 0.18958162 -0.22187676 0.12252745 0.018792218 0.3270747 0.07056825
-0.28466037 -0.27474803 -0.33037218 -0.15648277 0.122170396 0.22507344 -0.26652908 -0.21679422
-0.28569424 0.38158867 -0.15054019 0.3413254 -0.32031652 0.053155556 0.12557502 -0.09378037
-0.06944015 -0.1800135 0.2612014 -0.016116349 0.25390995 0.31573328 0.21411988 -0.4578268
0.4034201 -0.035042204 -0.17269048 0.06675584 0.29573372 0.29452547 0.13575539 -0.10914
-0.18857664 0.12254563 0.26117387 0.08406975 -0.2411853 0.16978659 0.20993462 -0.27827904

arith.constant1 f4 [64, 128]
00000000: f9ad 46be 03c0 1bbe b157 01be 9383 123e
00000010: 19db ff3d 0957 28bd 6ebd b03c 7b6f e0bb
00000020: 28fc 0d3e 3665 93bc d96b 053d 09e5 4d3d
00000030: 4680 c73d 34e1 b93a 7f96 4f3d 02c9 b0bd
00000040: b546 4c3d fbef c6bc 93d4 a6bd 99d7 00be
00000050: 6fa8 09be 7de5 483c ca67 a33d 85f2 27be
00000060: 3fd2 333e 9a86 79bd bcf7 24be 4f81 acbd
00000070: 4e54 3d3d 57f2 0fbe 4404 41bd 8252 1d3e
00000080: c13f bdbd 8433 053e 2d49 41be c331 d8bc
00000090: 9aed 39be 5ad7 cbbd 52fa bebd b4ae 623d
000000a0: 6a6e 3ebd d258 39bc 010f 1f3e a889 0b3e
000000b0: 195a 0abd fc83 b8bc 3af6 d33d 7fef a33c
000000c0: 41a3 023e 75c6 21be 023a 01bc b2df 1e3e
000000d0: 8be8 4f3e 3053 283e 186d 0d3e 7d17 45be
000000e0: aa76 91bd 5b8b 55bd 6124 04be 1818 35be
000000f0: 68f7 92bd 00e8 123d 8ac8 993c 5005 bbbd
00000100: d330 ba3d 40b1 40bd 8ff1 91bc d3aa 48be
00000110: e5a4 573d 15cb fe3d 0115 0a3e bfcf 2dbe
00000120: e96b c7bd 631d 4cbd a4d2 fc3d 60c9 abbd
00000130: 03e0 e7bd 28ef 14be a4b2 b33d 0fdd 9b3d
00000140: ab6c 163e 7be4 653d 91a1 653d f9a7 043e
00000150: 3687 0a3d b11a 6fbd c0e0 063e 6d0b 973d
00000160: 1e69 173e dca0 213e f341 29be 411d a33d
00000170: fda1 e0bd 28b6 dbbd fa7f a1bd d86f e7bd
00000180: b479 d1bd 95a3 06be c0d9 c73c 7420 a53d
00000190: db62 cdbc 8661 1bbe db60 d53d 3f45 87bd
000001a0: 036c 80bd 051e 22be cef7 ecbd 31cc ccbd
000001b0: e68f 343e 50ca 3abd fb07 71bd 5c08 85bd
000001c0: 163d 2fbe d057 073d 814b 62bd e1a2 383e
000001d0: bba2 1c3e c02b fa3d 3544 653c 66a5 303d
000001e0: 761b 02bd 352e 5a3d b5a0 223e 63e3 e2bd
000001f0: 6587 d4bd 3aaa bfbd caa9 29bc 3547 f1bd
00000200: 2f52 31be 2d61 623d 5938 b73d 11d1 80bd
00000210: 97ea d9bd 7776 e9bd 302e 9abd d27a 21bd
00000220: ad42 583d e84b 26bd 0c74 b03d 05f2 ab3d
00000230: cdcf fe3a 1dcf 4e3d fe58 11be e47d 42be
00000240: d7b7 afbd e68a 1abe f815 8abc 5a96 88bd
00000250: 862c f4bd 4673 12be b542 d4bd a18a 2b3e
00000260: 96e4 183e 0580 a5bd ee0c 0a3e 37aa 233e
00000270: f857 4b3d 2175 16be 418e f5bc 698a bcbc
00000280: 82d4 613d 4188 60bd 82c6 26be 4b04 c6bd
00000290: 6703 57bb 9b9e dc3b c109 aebd 8772 07be
000002a0: 999b f2bc 7641 00bd baeb 3bbe 4a03 c13c
000002b0: a76a cebd b5f2 7abd 13b5 563d 39d6 82bc
000002c0: 21a9 f33d f393 f33d d33e fe3d ce15 03be
000002d0: efce f13d d569 26bd 7f1d 2fbc 7154 04be
000002e0: cc0a 25be 1fec 1b3e 594b ebbd 4d3a 233e
000002f0: f7d9 0fbe ad32 6cbc c4e0 2abe cfcc 303e
00000300: f618 9ebd 0ce8 a93d 1c36 fe3d 0631 86bd
00000310: 0fc0 623c 5267 07be 9aa6 e13d ac4f 08be
00000320: 2a30 9abd be06 9dbd 097a a8bd b6ea b3bd
00000330: cc3b 1d3e 7446 cc3d af80 1abd 54dc 2ebe
00000340: 35dd 243e e132 ef3d 87e8 14be 49b1 343d
00000350: 0529 cbbd 394f 3cbe 439b 52bd d394 933d
00000360: 8948 c93d 881b 1f3b 4e6f 2fbe f1df 053e
00000370: 65ab 12be d81f c13d 1637 14be 6e3d 0c3e
00000380: 5a16 993c db4a 91bd 6d63 153e 3d5e 2cbb
00000390: 313e 2bbc 4ae7 1fbe 3f03 103d a7e8 10bd
000003a0: 7ee6 9fbd 0c6f 36bd c3d3 e4bd 3cd1 c63c
000003b0: d999 90bd 6443 31be f265 083e b0d1 43bd
000003c0: 2cbb 2ebe bfb3 c73d 135c 2f3e a6ac 31be
000003d0: 4b4d 41be d8a8 23be d481 23bd cc30 fb3d
000003e0: caac 613d 786d 4abd ce5b aa3d b175 0fbe
000003f0: ceb1 1abe 32e2 2d3e 5d73 87bd 8580 883d
-0.19402303 -0.15209965 -0.12631108 0.14308004 0.124929614 -0.04109863 0.021574702 -0.006849227
0.13865721 -0.017992597 0.032573555 0.050267253 0.09741263 0.0014181496 0.050680634 -0.08632089
0.04987212 -0.024284353 -0.08146014 -0.12582244 -0.13443159 0.0122617455 0.079787806 -0.16401108
0.17560671 -0.06091938 -0.16110128 -0.08423101 0.046222977 -0.14057289 -0.04712321 0.15363505
-0.09240676 0.13007933 -0.1887557 -0.026390916 -0.18157044 -0.099531844 -0.093250886 0.05534239
-0.046492018 -0.01131268 0.15533067 0.1362673 -0.03377733 -0.022523873 0.10349698 0.020011662
0.12757589 -0.15798362 -0.007887365 0.1551502 0.20303552 0.16437984 0.13811147 -0.19247241
-0.071027115 -0.052134853 -0.12904502 -0.17684972 -0.07176095 0.035865784 0.018772382 -0.09131873
0.09091344 -0.04704404 -0.01781538 -0.19596414 0.05264749 0.124410786 0.13484575 -0.1697378
-0.09737379 -0.049832713 0.12344864 -0.083880186 -0.11322024 -0.14544356 0.08774307 0.07610523
0.14689891 0.0561261 0.056062285 0.12954701 0.033820353 -0.058375064 0.13171673 0.07375226
0.14786193 0.15784019 -0.16529064 0.07964564 -0.10968397 -0.10728103 -0.07885738 -0.113006294
-0.10228291 -0.13148339 0.024395823 0.080628306 -0.025071552 -0.15173921 0.10418864 -0.066050045
-0.062706016 -0.15831764 -0.115707025 -0.09999884 0.17633018 -0.045603096 -0.0588455 -0.06495735
-0.17113146 0.03304273 -0.055247787 0.18030883 0.15296452 0.12215376 0.013993313 0.043126486
-0.03176447 0.053266723 0.15881617 -0.11078527 -0.10377387 -0.0935864 -0.010355422 -0.1178116
-0.17316507 0.055268455 0.08946294 -0.06289876 -0.106404476 -0.113995485 -0.07528341 -0.03942377
0.052797962 -0.040599734 0.08615884 0.08395771 0.0019440592 0.050490487 -0.14194104 -0.18993336
-0.085799865 -0.15092048 -0.016856179 -0.06669302 -0.11922555 -0.14301786 -0.10364286 0.16752101
0.14930949 -0.080810584 0.13481495 0.159829 0.04964444 -0.14693119 -0.029975059 -0.023015218
0.055134304 -0.05481744 -0.16286662 -0.096687876 -0.0032808424 0.0067327744 -0.08497954 -0.13227282
-0.02961521 -0.03131243 -0.18351641 0.023561139 -0.10078936 -0.06126662 0.05241878 -0.01597129
0.11897493 0.118934534 0.124143265 -0.12801287 0.118070476 -0.040628273 -0.010688185 -0.12922837
-0.161174 0.15226792 -0.11488981 0.15940209 -0.1404799 -0.014416379 -0.16687304 0.17265628
-0.07719605 0.082962126 0.12412664 -0.06552319 0.013839736 -0.13223007 0.11018105 -0.13311642
-0.07528718 -0.076673016 -0.08226401 -0.08785002 0.15354842 0.09974375 -0.03772038 -0.17076236
0.16100009 0.11679626 -0.14541827 0.044114385 -0.09919933 -0.18389596 -0.0514176 0.0720612
0.09828288 0.0024277885 -0.17132303 0.13073708 -0.14323194 0.09429902 -0.14474139 0.13695309
0.018687416 -0.07094356 0.14588709 -0.0026301288 -0.010451839 -0.15615574 0.035159346 -0.035378125
-0.07807635 -0.044539496 -0.11173203 0.024269693 -0.07060594 -0.17310864 0.13320139 -0.047807395
-0.17063588 0.09751081 0.17124967 -0.17351016 -0.18877141 -0.15982378 -0.039918736 0.12265167
0.055096425 -0.049420804 0.083182916 -0.1400974 -0.1510689 0.16980818 -0.06613801 0.06665138

arith.constant2 f4 [128, 12]
00000000: c567 233e c41b 16be 1aab d13d 1bcc 27be
00000010: 3159 18be 49e0 3cbe 3c60 353e e689 bbbd
00000020: 197b 3c3e d26b 14be a845 ebbc 99a9 fb3d
00000030: 5c6d c93d 329d 183e 48b6 a1bd 251d 02bd
00000040: 37d1 2abe f819 c5bd c847 783e 13f5 8b3c
00000050: 80ea 90bd 0732 fe3d 75b0 17be 67d9 a93b
00000060: 41aa 633d ac3c edbd b290 a73a efdb a53d
00000070: 3505 35be 30e9 e53d 6d73 1c3e 03ba bb3d
00000080: 5c47 1e3e 430a 2dbd d13c ef3c 7d0a 0c3e
00000090: 422e 10be 688b 42bb 529d f13d 5099 33bd
000000a0: 294d 8c3d fa21 02be dd2f 91bb 0e8a 8f3d
000000b0: d265 9f3d b2fa 443e 0a0b 1cbd 64f9 17be
000000c0: 5be0 99bb 8db8 27be 5599 25bd b8df babc
000000d0: 2b5e 14be 094e ecbd 277e 3cbe 8875 1b3d
000000e0: b727 4cbd d4ce a4bc 0681 36be 7cdd d93d
000000f0: 9bf2 753e f75d 62bd 3fe3 01be fb93 4c3e
00000100: edd6 a93b 491c 5d3d b86d 72be 10bd 67bd
00000110: 46c0 6c3d f4c7 d2bc da4b e1bd ebc8 7ebc
00000120: ff50 acbd a938 cabd 7b8a 853c b3b4 8fbd
00000130: 0c3b c9bd 675e 0abd 25d6 b73d ce28 b53c
00000140: c7fc 02be 7b98 583d 4bf2 bf3d f465 0e3e
00000150: fcdd a73d 5d43 ab3d 8dbd 2e3e df9c e8bd
00000160: 573c 533a 8e7b 473e 4351 66be 00dc d1bd
00000170: a335 5e3d 7893 4fbe 9a97 f93c 5f61 03be
00000180: a930 44be 3779 613d 199b 01bd 4021 cabd
00000190: 5a5d ce3c de98 153e 77ab 87bc d162 c9bd
000001a0: 8f8d 143b 666b e13d b13d af3d a606 10be
000001b0: 2dbf 84be 7df0 02be a898 29be eb47 f1bd
000001c0: 6e53 0fbe ef36 bf3d d8f9 4bbd e722 0dbe
000001d0: d5e2 163e 42c2 3ebd 1d06 9fbd 7b71 7f3e
000001e0: 382d 7e3e 8489 553d 2a85 f13d e0bb 993c
000001f0: 070b 413e 5253 64be 96e6 9cbc 376b 10be
00000200: 7ab2 3cbd 089a a7bd a947 15bd 89ff 9dbd
00000210: f157 a13d 1bb0 ad3d eaa7 4bbd fe19 9cbd
00000220: 8f91 e0bd 41bd 35be 7a88 d83d 5e81 d1bc
00000230: f34e 11be c310 50be 31e8 c2bd 76d3 f23c
00000240: be87 083e e733 20be 6e35 fa3d 3fae bbbd
00000250: 5691 063e 38c1 223e 05a0 d4bd 0d7a a63d
00000260: 01b5 833d b976 48bd 8bf7 1d3e 5615 8c3d
00000270: ad61 ae3d 0a58 103e 6a69 9e3d 8fbc 8fbd
00000280: 6efa 133c 41ed d2bd 9a61 263e cfd0 f2bd
00000290: d638 12be 4465 e13b 097b e3bc c1d5 803d
000002a0: 2ca3 1b3c 1d9a 483e e230 793d ea84 643d
000002b0: 1bad d43d 5cc6 02be 789e d63d fc59 143e
000002c0: be10 923c 32fb 9ebd 975c 16be 05bc 483e
000002d0: e0c7 c6bd c43f 08bd 3f0e 2abe deef a93c
000002e0: a3ed c93c 59ba 36be 39f6 473e 9422 2fbe
000002f0: af45 033e b8bd 2bb9 af05 27be b4fd 2fbd
00000300: 7137 4dbe f6ab 3bbe 0dfb 473e d5ef 17be
00000310: 9613 fa3c 3b8f 60be 7b16 c5bd 7406 37be
00000320: c768 f7bd a0b8 6a3d b9a7 01bd 340b bfbd
00000330: f841 09be a290 9fbc 2a9f 99bd 817f 113e
00000340: 399a 4e3e 43da 6c3e 79fa 2e3e 9ac7 693d
00000350: 86aa 9abd 2735 343d b9f6 513e 1d74 733e
00000360: 0044 103e d67f de3d ff23 3fbe 6856 35bc
00000370: 8137 cb3d c4c7 573d c5d1 c5bd 8448 fe3d
00000380: 2016 c53c 6a32 c7bb 0aa3 8ebd 536a e1bd
00000390: de2d 5a3d 6cd3 9cbc 12c5 5d3e 96a2 75bd
000003a0: 8c27 d73a 645b ff3d a916 24be fda0 64bd
000003b0: af8b e1bd a00f ddbc 56ba ba3d 8551 37be
000003c0: 4ec9 ae3c 851d 623e d76c 483d 84b5 033e
000003d0: ddaf d4bb c5a5 253e 76e9 633c fbc3 8b3d
000003e0: 9a30 3d3d 709d a53c 07f0 353d 7603 0fbd
000003f0: 88f8 20be a824 a03c cc26 17bd 5152 1b3e
0.15957554 -0.14659029 0.10237713 -0.16386454 -0.14877774 -0.18444933 0.17712492 -0.091571614
0.18406333 -0.14494255 -0.028719738 0.122882076 0.09835312 0.14903715 -0.078960955 -0.031766076
-0.16681372 -0.09624094 0.24246132 0.017084634 -0.07075977 0.12411886 -0.14813407 0.005183387
0.05558229 -0.11583838 0.0012784211 0.0809859 -0.17677768 0.112261176 0.15278406 0.09166338
0.15456909 -0.042246114 0.029203804 0.13675876 -0.14080146 -0.0029685143 0.117975846 -0.043847382
0.06850655 -0.12708274 -0.0044307546 0.07008754 0.077830926 0.19236258 -0.038096465 -0.14841229
-0.0046959347 -0.16378994 -0.040429432 -0.022811756 -0.14489047 -0.115383215 -0.18407498 0.037953883
-0.049842563 -0.020118155 -0.17822656 0.10637948 0.24018328 -0.055265393 -0.12684344 0.19978325
0.005183092 0.053982053 -0.23674667 -0.05657679 0.057800554 -0.02573011 -0.11000796 -0.015550832
-0.08413886 -0.09874088 0.016301384 -0.070168875 -0.098257154 -0.033781435 0.08976392 0.022114184
-0.1279174 0.05287979 0.093723856 0.1390608 0.08196637 0.08362458 0.17064495 -0.11358046
0.00080580026 0.19480726 -0.22491936 -0.1024704 0.05425037 -0.20271099 0.030467797 -0.12830113
-0.19159187 0.05504724 -0.031642053 -0.09869623 0.025190998 0.14609095 -0.016561253 -0.09833301
0.0022667383 0.11006813 0.085566886 -0.14065036 -0.25927106 -0.12787051 -0.1656214 -0.117812954
-0.1399667 0.093366496 -0.049798816 -0.13782845 0.14734967 -0.046571977 -0.07764838 0.24945633
0.24821937 0.0521331 0.11792977 0.018766344 0.18851863 -0.22297409 -0.01915292 -0.14103399
-0.046068646 -0.08183676 -0.036445294 -0.07714755 0.078781016 0.08480855 -0.049720682 -0.07622145
-0.10965263 -0.17747976 0.10572906 -0.025574382 -0.14190273 -0.20318894 -0.09516943 0.029641848
0.13333032 -0.15644799 0.12217222 -0.09164094 0.13141379 0.1589402 -0.10382084 0.08128748
0.06431008 -0.048941348 0.15426461 0.06840007 0.08514724 0.14096084 0.0773495 -0.070183866
0.009031875 -0.10299159 0.1624817 -0.11856233 -0.14279494 0.006878527 -0.027768629 0.0629077
0.009499352 0.1959004 0.060837634 0.05579082 0.1038458 -0.1277098 0.10479444 0.14487451
0.017830249 -0.077627555 -0.14683758 0.19602974 -0.09706092 -0.033263937 -0.16606997 0.02074426
0.024649447 -0.17844523 0.1952752 -0.17103034 0.12819551 -0.00016378507 -0.16310762 -0.04296656
-0.2004068 -0.18327317 0.19529362 -0.14837582 0.030526917 -0.21929638 -0.096234284 -0.17873555
-0.120805316 0.05730498 -0.031654093 -0.09328309 -0.13404071 -0.019478146 -0.07501061 0.14208795
0.20176019 0.23130135 0.17087735 0.05707512 -0.07552056 0.043996003 0.20504273 0.23774762
0.1408844 0.108642265 -0.18666075 -0.011067964 0.09922696 0.052680746 -0.09659151 0.12416175
0.024058402 -0.006079008 -0.06964691 -0.11006608 0.0532664 -0.019143783 0.21657208 -0.059969507
0.0016414984 0.12468603 -0.16024269 -0.055817593 -0.11012971 -0.02698499 0.09117572 -0.17902191
0.021336224 0.22081573 0.048931923 0.12862211 -0.006490691 0.16176517 0.013910642 0.0682449
0.04618893 0.020216674 0.04441836 -0.03491541 -0.15719807 0.019548729 -0.036902234 0.1516812

arith.constant29 f4 [64]
00000000: 676e eebc 4635 d8bc 7d53 433c 3745 84bd
00000010: 9d91 5a3c 83d8 5c3b 5b48 76bc dca1 c03b
00000020: 7a68 56bc c0c6 24be 54ae 833d 192e 92bc
00000030: c33b 31bd 1aab ab3a da71 07bd 1d61 eabc
00000040: 8b1e 0dbd 6c81 353d 2adb 3e3d 0f34 fdbc
00000050: 8f77 d33c 72d4 76bc c57b 1f3d b4a3 913c
00000060: 60a7 8cbd 2949 56bd 7d9f 85bd 12f4 3abc
00000070: 54ab 8c3d 4047 7c3d 3831 95bd 082a 95bb
00000080: b3b3 a1bc 2ffd c93d 0512 82bc eda9 853d
00000090: 6581 5c3d 25b2 263d e3be 943c 7255 033d
000000a0: 5072 45bd 4efe 44bd 7341 6b3d 448b 073c
000000b0: 0772 713d cbda 913d 4ae2 23bc 8df5 80bd
000000c0: 9b49 b7bd bb80 39bc 2753 293c d017 073c
000000d0: 27db 6fbd 2876 f73d 011b e13c 216b 6abc
000000e0: 91d1 1abd 22c1 133d 3b03 263d 046c 27bd
000000f0: 9fd2 1c3c d03d 0d3d da6e 273d f3c9 45bd
-0.029105378 -0.02639259 0.011921761 -0.06458514 0.013340381 0.0033698387 -0.015031899 0.00587867
-0.013086433 -0.16091442 0.06429735 -0.017844247 -0.043269884 0.0013097257 -0.03306756 -0.02861076
-0.034452956 0.04431288 0.04659573 -0.030908613 0.025813846 -0.015065299 0.038936395 0.017778255
-0.06867862 -0.052315865 -0.065245606 -0.01141073 0.06868616 0.061591387 -0.07284778 -0.0045521297
-0.019739008 0.09862744 -0.015877733 0.065265514 0.053834338 0.040697236 0.018157428 0.03206391
-0.04820472 -0.048094086 0.057435464 0.00827295 0.058946636 0.071218096 -0.010002682 -0.06296835
-0.08949586 -0.011322196 0.0103347665 0.008245423 -0.05855861 0.120830834 0.027478697 -0.014307768
-0.037797514 0.036072858 0.040530425 -0.040874496 0.0095717 0.034482777 0.0408772 -0.048288297

arith.constant30 f4 [128]
00000000: 5559 3ebd ac16 51bd 9456 91bc cba6 a039
00000010: f032 c3bc e196 07bd 7fe3 423c 8b8b 93bc
00000020: c214 29bd 5268 0cbd fd97 85bc 98d7 3ebd
00000030: 6fdc 053d ecef 2bbd 7abd 88bc 89eb 4dbd
00000040: 4db1 13bd e68d b73c af4c 7ebd bf00 c1bb
00000050: f06c bb3b 05ac 43bd 6dc0 cab9 273b ae3d
00000060: 6c66 643d a0c3 513c d27f c9bc 5d1b f3bd
00000070: 1b8e 45bc 3159 c5bd 7bc2 a83c bf5c 663d
00000080: 57ad a43a 9e9e 4b3d c17e b03c 96a5 32bc
00000090: 7236 cfbb e33f 0cbd ef3d 8fbd 93af 43bd
000000a0: e269 ad3d f629 32bd c404 fc3b 6fc2 473c
000000b0: de6a 1bbd c810 473d 5a4c 68ba d32d c1bc
000000c0: 0d89 57bd fb1d 25be 9f24 dabd e403 d93c
000000d0: e258 aebb ab6d a8bc 1b2f 91bd 4555 a53d
000000e0: 2b76 a8bd 6f76 643c 4586 6a3d 416a b8bc
000000f0: 4f96 e7bd 46ff 5ebd 7e4d d83d e95a 8f3d
00000100: 0d41 f43c f3c1 22bc 38b1 d5bd c901 473c
00000110: df94 c73d 5ee8 e33c a1b4 f33b a7bd bfbc
00000120: 5da6 94bc 5dd8 fbbc 5bd3 0cbe a912 13be
00000130: 2e24 5f3d d717 3cbc 9dfb 90bc bf8b 16bb
00000140: ceb4 083d de71 65bc 8677 333d edef 3cbd
00000150: 5163 88bd b978 d4bc 9525 e93c 0deb 09bd
00000160: 571e b7bc 1fcf 4a3c 52ec ae3c 0208 d13c
00000170: fb59 f7bb 5cdd 74bd 80d7 db3c 6846 1dbd
00000180: 825d 0fbd 5379 8e3d 0fb5 9abd 53be 193d
00000190: fb2f c0bd 02cd 453d 7b7d b23c a01a e7bd
000001a0: 97b8 cfbb 5027 4ebd c357 4fbd 0bf8 813c
000001b0: b39d 6abc c306 19bd 78a7 a03c ac1c 7f3d
000001c0: 9b74 5f3c a6c3 60bd 57d4 4ebe 7967 9dbd
000001d0: 9a55 593d a6b3 24bc 87fd a93d 8807 84bd
000001e0: 9ad9 663d 0a43 01bc 138d 633d 94d4 0a3d
000001f0: c5ef 6d3c 1e2e 1b3d 88d6 65bb 46a1 1cbd
-0.046471912 -0.051047012 -0.017741479 0.0003064185 -0.023828 -0.033102874 0.01189506 -0.018010875
-0.04127956 -0.034279175 -0.016307825 -0.046592325 0.032680925 -0.041976854 -0.016691912 -0.050273452
-0.03605776 0.02240653 -0.06208485 -0.0058899815 0.0057197735 -0.047771472 -0.0003867181 0.08507376
0.05576174 0.012802988 -0.024597082 -0.118704535 -0.012057806 -0.096361525 0.020600548 0.056240793
0.0012563866 0.049711816 0.021544816 -0.010903737 -0.006323629 -0.034240615 -0.06994235 -0.047774862
0.08467461 -0.04349705 0.007690998 0.012192353 -0.037943713 0.04859999 -0.0008861475 -0.023581421
-0.052620936 -0.16124718 -0.10651516 0.026491113 -0.0053206543 -0.020560106 -0.07089063 0.080729045
-0.08225664 0.013944252 0.057256956 -0.022511603 -0.11307966 -0.054442666 0.105616555 0.069997616
0.029816175 -0.009933936 -0.104341924 0.012146422 0.09745192 0.027820762 0.007437304 -0.023405863
-0.018145734 -0.030742818 -0.137525 -0.14362587 0.054477863 -0.011480293 -0.017698104 -0.0022971479
0.033375554 -0.014004199 0.04381516 -0.04612725 -0.06659568 -0.025936471 0.028460303 -0.033671428
-0.022353334 0.012378483 0.02135292 0.025516514 -0.0075485683 -0.059781417 0.026836157 -0.038397223
-0.035001285 0.069567345 -0.075540654 0.037535023 -0.093841515 0.048291214 0.02178835 -0.11284375
-0.0063391435 -0.05033046 -0.050620805 0.015865346 -0.014319825 -0.037359964 0.019611105 0.062283203
0.013638641 -0.054874085 -0.20198189 -0.076857515 0.05306015 -0.010052597 0.0830031 -0.06446749
0.056359865 -0.0078895185 0.05555446 0.033894137 0.014522498 0.037885778 -0.0035070498 -0.03823974
